…
der to assess how well the model generalizes to new data. This is especially essential in the case of unbalanced datasets, when the absence of training data poses a considerable risk of overfitting. ReLU The model was fine-tuned with layers to increase its accuracy and precision. We employed three layers for the Deep Neural Network in addition to the input and output layers, as shown in Table 8 for DS1 and Table 9 for DS2, and applied the Rectified Linear Unit activation function (ReLU). Table 8. TModel1 Summary. Model: "Sequential_16" Layer (Type) Output Shape Parameters flatten_16 (Flatten) (None, 60) 0 dense_74 (Dense) (None, 60) 3660 dense_75 (Dense) (None, 120) 7320 dense_76 (Dense) (None, 60) 7260 dense_77 (Dense) (None, 60) 3660 dense_78 (Dense) (None, 30) 1830 dense_79 (Dense) (None, 8) 248 Total params: 23,978 Trainable params: 23,978 Non-trainable params: 0 Table 9. TModel2 Summary. Model: "Sequential_2" Layer (Type) Output Shape Parameters flatten_2 (Flatten) (None, 14) 0 dense_8 (Dense) (None, 140) 2100 dense_9 (Dense) (None, 64) 9024 dense_10 (Dense) (None, 30) 1950 dense_11 (Dense) (None, 8) 248 Total params: 13,322 Trainable params: 13,322 Non-trainable params: 0 Softmax Regression Since we had a multi-class dataset, we employed softmax regression. Softmax regres- sion (also known as multinomial logistic regression) is a generalization of logistic regression used for dealing with several classes. As a result, the softmax function performs two tasks: First, it converts all of the scores 
…
